src/ros2_deep_learning_to_twist_message/models/z.onnx (onnx, 652705 bytes, 17 tensors)

features.0.weight f4 [24, 3, 5, 5]
00000000: 069a 3dbd 344c c1bc d994 45be 6440 3bbe
00000010: 42f7 cdbd 3195 84bd 373b 09be 7523 72bd
00000020: 62b4 23be efc0 75bd b404 fdbd ba38 27be
00000030: bcf6 88be be35 70be e28e 13be 0870 6dbd
00000040: d0a1 41bd 60b2 40bd b73d 48be 8863 febd
00000050: 5aac c53c 95d6 673d d652 98bd 7fbd e63c
00000060: 3bc6 4cbd 03e8 12bd f4ce 6a3c 4172 56be
00000070: d1db 31be 454e acbd eb2c 13be 64e4 1bbd
00000080: 5714 6fbe d00d 55be 56e4 2ebe a294 4cbe
00000090: e22b 5ebe c5ad 88bd a45e eebd 8209 2ebd
000000a0: 976d 65bd 8229 1fbe c60c cfbd 0e2d 6abe
000000b0: 9d47 1fbe 66d4 96bd dc7d 173d 53ea a43c
000000c0: f896 dbbd 5f3e efbc df23 703d f5a4 863d
000000d0: 2cba 53bc b205 25bd 5263 703d a3ac 01be
000000e0: 4613 8bbd e14b 47be bc18 39be 85d5 d7bd
000000f0: 191e 6aba 2d83 5dbd 0dfc 38be 5a7b a0bd
00000100: 66a8 243c 02de 38bd 38d1 52bd 6085 44bd
00000110: 1acc 80bb e0a9 9c3d b991 a4bd 2256 4ebd
00000120: 31fd f23c 6da1 953d 862e d43d a995 db3d
00000130: b782 c9bc 271e 2abe 230a 4ebd b9b3 cdbd
00000140: 43ae 32be 2322 eabb 3b7e 78bd ba54 7ebe
00000150: 0b35 40bd 9bc3 d5bd 2278 21be 53b9 56be
00000160: 0888 f1bd 56f7 33be 224e 3abc debe 08bd
00000170: 58c1 30bd 6190 bebd a3d4 50be 0bcf c6bd
00000180: e546 74bb e337 58bd 3a86 38be ba8c f9bd
00000190: 8e0b de3d 3981 a83c ee7f 00be f5ff c3bd
000001a0: 0be6 0ebe 91b8 a0bd dd2e 58be 5f76 83be
000001b0: 6263 1cbe 221e 61bd 14f4 15be c0e7 bbbd
000001c0: a62e 80be 7fd9 a6bd 0930 2bbd c259 24be
000001d0: 2351 0abe 7753 0dbe 1357 0cbe 883d 92bd
000001e0: cb15 a13c 0662 7dbd 6b8c 11be 56b4 3cbd
000001f0: f743 2dbe 8193 5dbd 132c 7bbd a29a d1bd
00000200: 551c 9ebd 7839 d0bd 63e5 9ebd 7dec 81bd
00000210: a100 49be 1ddb d9bd f60a 333d 1de1 a9bd
00000220: c683 edbd ad0b 10be 2b9c e0bd 9f2b a3bb
00000230: d728 943d 64d4 8b3b 6e48 363c 7674 ebbd
00000240: c02b 29be fc64 7cbd 574e 163d acb3 55bd
00000250: 342b f8bd f86d f0bd e9d3 1bbe abc7 47be
00000260: a485 07be 86f4 03bd 6c62 c23c e650 62be
00000270: 3459 9ebd d616 88be c93f 3fbe 2698 0ebe
00000280: 8b35 0cbe 306a 49be f522 9abe 7381 95be
00000290: dcc1 13be 4e40 bbbd 3700 44be 61ca fabd
000002a0: afb3 8cbe 9d7e 02be 851b 793d e6f8 05be
000002b0: 821d a63b 3887 8bbd c546 35be 7fd1 da3c
000002c0: 442c ecbd 0321 2abe b8a9 b0bb 13b7 06be
000002d0: 1429 d0bd c840 39be bea4 d4bd 3132 0dbe
000002e0: c0d9 21bd 3f03 a9bd bc66 5dbe bbb2 73be
000002f0: 7040 9cbe 0056 99bd c8de f9bb 1b74 91bd
00000300: 40ed 85be 28af 37be b5e7 56be 3868 d7bd
00000310: 61cf 1ebe b4e3 87bd c4f9 3ebe 0a42 a2bd
00000320: 6a64 2dbc ac04 3e3c ee79 24be 5678 0bbe
00000330: d2d1 91bd 500f 133c 9c74 17be deab 0dbd
00000340: 7861 9bbd a2a1 16bd dbb6 9fbd c535 20be
00000350: 1f54 10be bbe0 37be b99f babd c264 24bd
00000360: d3bf 41be 572b 3fbe 698e 26bd aeb7 39be
00000370: 77de 56bc 7d0f 893d 86ee a4bc 5a8c 97bd
00000380: 9697 13be 8dd3 8d3d 50a7 b8bd 2da4 36bd
00000390: 26cf 1fbd fa86 423a 338f 72bd 63b7 f03c
000003a0: 3ad4 3abd 6b7c 703d d129 643d df75 17be
000003b0: 1c7f 53bd 5231 34be 1758 f7bd abb8 573b
000003c0: 84bd 46bd 7cab 8dbc b67e 14be e11d c8bd
000003d0: 9c27 a13b 5671 2dbe f484 85bb 03ce 3cbe
000003e0: e997 a6bd 6cd6 79bd 87a6 65bd 1677 b23a
000003f0: 7ecd a23d 95f6 0cbd 6e49 48bd e85d edbd
-0.046289466 -0.023595907 -0.19295062 -0.18286282 -0.10056926 -0.064737685 -0.13401495 -0.059115846
-0.1598678 -0.05999845 -0.12354413 -0.16330233 -0.26750743 -0.23458001 -0.14409974 -0.05796817
-0.047273457 -0.04704511 -0.19554792 -0.12421328 0.024130035 0.056601126 -0.07437675 0.02816653
-0.049993735 -0.035865795 0.014331568 -0.20942022 -0.1736901 -0.08413366 -0.14372604 -0.038059607
-0.23347603 -0.2080605 -0.17079291 -0.19978574 -0.21696427 -0.06673769 -0.11639145 -0.042489536
-0.056012716 -0.15543178 -0.10109858 -0.2286875 -0.15554662 -0.073647305 0.036985263 0.020131266
-0.107221544 -0.029204546 0.05862796 0.06574432 -0.012922805 -0.040288635 0.05868847 -0.12663512
-0.067907855 -0.1946254 -0.18075842 -0.105387725 -0.00089308765 -0.054080177 -0.180649 -0.078360274
0.010049915 -0.0451336 -0.051469058 -0.04797876 -0.003930581 0.076495886 -0.08035607 -0.05037511
0.029661747 0.0730618 0.10360436 0.10721905 -0.024598463 -0.16613065 -0.050302636 -0.10044045
-0.17449288 -0.0071451827 -0.060667258 -0.24837008 -0.046925586 -0.104376994 -0.15768483 -0.20969133
-0.11793524 -0.1757482 -0.011371167 -0.03338515 -0.043153137 -0.09304882 -0.20393614 -0.09707459
-0.0037273702 -0.052787673 -0.18019953 -0.121850446 0.10842048 0.02056943 -0.12548801 -0.09570304
-0.13954942 -0.07847703 -0.21111627 -0.25676247 -0.15272287 -0.054960378 -0.1464389 -0.09175062
-0.2503559 -0.08146953 -0.041793857 -0.16049865 -0.13507514 -0.1380137 -0.13705091 -0.071406424
0.019663712 -0.06186106 -0.14213721 -0.04607042 -0.16920458 -0.05409575 -0.06132133 -0.10234572
-0.07720248 -0.10167211 -0.07758596 -0.06343935 -0.19629146 -0.10637496 0.043711625 -0.0829489
-0.115973994 -0.14066954 -0.10967287 -0.0049795653 0.07234352 0.0042672623 0.011125667 -0.114968225
-0.16520596 -0.061619744 0.036695804 -0.0521733 -0.12117615 -0.11739725 -0.15217556 -0.19509761
-0.13234574 -0.032215618 0.023728572 -0.22101173 -0.07731858 -0.26579922 -0.18676676 -0.13925228
-0.136923 -0.19669414 -0.30104795 -0.29200324 -0.1442942 -0.091431245 -0.19140707 -0.12245632
-0.27480838 -0.12743612 0.06081726 -0.13083228 0.0050694356 -0.068129 -0.17702778 0.026711224
-0.115318805 -0.16614155 -0.005391326 -0.13155775 -0.10164085 -0.18091118 -0.103829846 -0.13788678
-0.039514303 -0.08252572 -0.21621221 -0.23798649 -0.30517912 -0.07487106 -0.0076254345 -0.071022235
-0.2615757 -0.1793791 -0.20986827 -0.10517925 -0.15508796 -0.06635228 -0.18649966 -0.07922752
-0.010583023 0.011597794 -0.16062137 -0.13620123 -0.07120098 0.008975819 -0.14790577 -0.034587733
-0.0758695 -0.03677524 -0.07798549 -0.15645511 -0.1409459 -0.17956822 -0.09112496 -0.040135153
-0.18920831 -0.18668877 -0.040663157 -0.18136474 -0.013114563 0.06692407 -0.020133268 -0.07399817
-0.14413294 0.06925116 -0.09016287 -0.044590164 -0.03901591 0.0007420626 -0.059218597 0.02938432
-0.04561255 0.058712404 0.05570394 -0.14791058 -0.051634893 -0.17596939 -0.12077349 0.0032916467
-0.04852058 -0.017293684 -0.14501461 -0.09771324 0.004918052 -0.16937765 -0.004074687 -0.18437962
-0.08134443 -0.060995504 -0.056067016 0.0013615813 0.07949351 -0.034414846 -0.048898153 -0.11590177

features.0.bias f4 [24]
00000000: 7589 ffbc 6112 11bd 477f 18be 69c5 933c
00000010: 6524 5cbd 0d92 bb3d 947d cebd 2316 cabc
00000020: db2c e4bd c3f9 2b3e fdf5 e8bd 1229 013e
00000030: 63f5 fb3d e2c8 a23d 72cf d03b 80b7 6f3d
00000040: a2e0 033e dcac 9d3d 6886 ab3d 7827 c5bd
00000050: 726e a4bd 6f2c 933d 34ac 993d 0fb7 103d
-0.031193474 -0.035417918 -0.14892302 0.018038468 -0.053745646 0.09158716 -0.10082546 -0.024668759
-0.11141368 0.16794495 -0.113750435 0.12613323 0.12302663 0.079484716 0.0063723857 0.05852461
0.1287866 0.07698986 0.08375245 -0.09626669 -0.08028878 0.071862094 0.07503548 0.03533083

features.2.weight f4 [36, 24, 5, 5]
00000000: aa87 92bd 0b4f c0bc 5ce1 f93b 16b7 b43c
00000010: fe2a 94bd d667 2abd 3697 a1bd 2b66 81bd
00000020: 27ae 40bd 7f3d 37bd 4415 8abc c67b 59bd
00000030: fb0a c33b 8891 a23c 41a8 aebc 9262 3bbc
00000040: ca6a 80bd 1173 59bd 0ef0 c7bc db74 85bc
00000050: 96e1 99bd d4e5 abbd 106d 76bc 2df3 0fbc
00000060: 76e1 f93c 08fb d2bc 4894 b43c 9709 32bc
00000070: 1c18 473c 6e1b 04bd 5ba9 a1bc 6c62 d3bb
00000080: 4d71 3f3c 5276 f639 4714 0bbd f01d 02bc
00000090: eec0 5dbd 62df 983c 4c91 ca3c 12f6 713c
000000a0: f406 84bd 5b7b 7abd ad54 bfbc e29c d6bb
000000b0: e381 593b e33c b3bc b260 8939 d3d5 afbc
000000c0: 814e 57bc 4072 693c f50f 4bbb 680d a0bc
000000d0: e28e 503c 611e 19bd c958 3fbd 2719 82bd
000000e0: 2a52 5e3a 3bb4 6abd 9672 31bd 6f7c 97bd
000000f0: ffee 59bc 9f0a 56bd 5439 0b3b ee19 05bd
00000100: 2b8b 37bd 05d9 a7bd 3c84 1fbd abca eb3b
00000110: aa6b ab3c 73e2 94bc 18c1 84bd 20b9 10bd
00000120: 7b7a f4bc 3cfe dcba c177 d23c c444 ecba
00000130: 60f2 b9bb 4540 9b3b 66b4 adbc 7fe1 ccbc
00000140: 2578 f3bc e517 74bd 5560 c8bc cfde aabc
00000150: e676 8fbd 6070 97bc 8586 48bd ea38 84bd
00000160: 58e6 a43c 25c7 18bd 8d38 1dbd 8e6a 82bc
00000170: 651f 0bbd 0429 6cbb 4efe 8538 11fb 163b
00000180: 4a57 15bd 9dae 20bd 4f44 7fbb 1942 363d
00000190: b825 053d 6269 353d 7866 1f3b 0822 a33c
000001a0: c0ea 053b 0ebc dc3c b4cd e9bc 4379 0abd
000001b0: 80af a23b 6346 8f3c 3e15 343d 32c1 a03b
000001c0: bd34 ac3c 8981 c03c 7c06 e0bc 8b6b 873c
000001d0: dd24 483c c612 c43c fc5c 0bbc 552a c13b
000001e0: bf5f 2c3d 2150 823d 276a 113d 7547 6d3d
000001f0: b568 5c3d 568e 7abd 2d40 22bd df1c 09bd
00000200: 0b37 7f3c 45ed f6bc c916 94bb f0d4 b1bc
00000210: d36d ea3c 76b6 2cbc ae59 94bc 784d db3c
00000220: 9832 d13c dac2 65bc ae00 ddbc 8515 b23c
00000230: 991a 14bd 6e03 21bd 39ff 6cbd 3210 25bd
00000240: 9339 34bd ec98 0bbb d514 b1bc 85f4 cabb
00000250: 2925 1b3c 3cd5 c4bc 0e40 61bb 28cb a4bc
00000260: 9c10 da3b ab12 1b3d 2464 7ebc b08a 9f3c
00000270: 6a1a 19bc f86d b7bc 77f6 163d 4bfc 083d
00000280: 43bb 843d 0302 153d f202 1e3d c01c f7bc
00000290: 57d5 843c fef0 c93d be26 2cbb 733c 893b
000002a0: 677e 603d 3627 b53c 580e c53c 8851 653d
000002b0: 8c32 54bc 2121 b9bc ef4f 15bd c604 ad3d
000002c0: 02a7 873d 87b7 7b3d d104 053d b78f 073d
000002d0: 82d9 4fbc 1394 a0bd 2b40 12bd 88b9 a5bc
000002e0: c8ed 3dbd 85e3 b63d d1ae 5d3c e6e4 903d
000002f0: e1e2 3ebc fca7 2b3d 1c09 d73d 37af a33d
00000300: 34bd 403d 46fa 963d 7ecb 1f3c a5ea bbbd
00000310: d50f b5bd 84ac d0bd 43a2 5bbd 8d95 a1bd
00000320: 8b08 1e3d b178 4c3d 8076 a73d 0993 8f3c
00000330: 0840 d0bb 26cf e8bb 8824 dfbc 2eef 8c3c
00000340: a54a e4bc de44 06bd a516 e8bc 5eeb d23b
00000350: 0b69 6c3c bc25 a0bc 14d8 813c 0240 0abb
00000360: 48bb 0dbc b19a 8e3a 14b0 1e3d 1c42 443d
00000370: 0f42 32bd de96 69bd 5383 49bb fba7 01bd
00000380: ef06 1ebd a44d 20bc 8e1a eebc ae07 5f3c
00000390: 2745 eebb 421f a6bc 8de9 323c 87c9 703c
000003a0: d589 333d 0af4 1e3d 0ba5 0cbd 0ed9 df3c
000003b0: 897e a03c 883c b63c c9f2 a2bb 1987 963c
000003c0: 9246 2a3d d158 9f3d bbc0 80bc f723 b3bb
000003d0: 6b4e d5bb 9ff2 463c 79bd 563d 35f4 773d
000003e0: 0dd4 a1bc b39a 063d 41c9 523d f857 b8bc
000003f0: 1bf2 b63a 5880 b5bc 039f 2a3c e219 693c
-0.07154782 -0.02347519 0.007625742 0.022059958 -0.072347626 -0.041602932 -0.07890169 -0.06318315
-0.047041085 -0.04473638 -0.016855843 -0.053096555 0.0059522367 0.019844785 -0.021320464 -0.011437075
-0.062703684 -0.05308825 -0.02440646 -0.016291073 -0.0751373 -0.083934456 -0.015040651 -0.008786005
0.030503016 -0.025754467 0.022043362 -0.010866544 0.012151744 -0.03225272 -0.019734075 -0.006450942
0.011684728 0.00047008932 -0.033954885 -0.007941708 -0.05413907 0.018661205 0.024727486 0.01476814
-0.06446639 -0.061152797 -0.023355806 -0.0065494636 0.003318899 -0.021879619 0.0002620272 -0.021464264
-0.013141275 0.014248431 -0.0030984853 -0.019537643 0.012729378 -0.037382487 -0.04671553 -0.06352454
0.00084808713 -0.057300787 -0.04332217 -0.07396781 -0.01330161 -0.052256223 0.0021243887 -0.03249543
-0.044810455 -0.0819569 -0.038944468 0.0071957908 0.020925362 -0.018174386 -0.06482142 -0.0353328
-0.02984356 -0.0016860436 0.025691869 -0.0018025865 -0.0056746453 0.004737886 -0.021204185 -0.025009869
-0.029720375 -0.0595931 -0.024459997 -0.020858197 -0.070051 -0.018486202 -0.048956413 -0.06456168
0.020129368 -0.037299294 -0.03838401 -0.01591995 -0.033965487 -0.003603519 6.389302e-05 0.002303783
-0.0364602 -0.039229024 -0.0038950627 0.04449663 0.032506675 0.044289954 0.002432255 0.019913688
0.0020434111 0.02694514 -0.02854047 -0.03380705 0.004964769 0.017489618 0.04396557 0.004905843
0.021021241 0.023499267 -0.027346842 0.016530773 0.01221582 0.023934733 -0.008506056 0.005894939
0.042083498 0.063629396 0.035501625 0.057929475 0.053810794 -0.0611709 -0.039611984 -0.0334748
0.015577088 -0.030142436 -0.0045193178 -0.021707982 0.028616821 -0.010541549 -0.018109169 0.026770338
0.02553682 -0.014023507 -0.026977863 0.021738777 -0.036158178 -0.03930991 -0.057860587 -0.04029865
-0.04400022 -0.0021300865 -0.021616379 -0.0061937 0.009469309 -0.02402746 -0.0034370455 -0.020116404
0.006654812 0.0378596 -0.015526805 0.019475311 -0.0093446765 -0.022391304 0.03685614 0.03344373
0.0648103 0.03637887 0.038577028 -0.030165076 0.01621501 0.09860419 -0.002626821 0.0041881143
0.054808047 0.022113424 0.024054691 0.055985957 -0.012951504 -0.022598805 -0.036453184 0.08448176
0.06623651 0.061454322 0.032475296 0.03309604 -0.012686135 -0.07840743 -0.035705727 -0.02023007
-0.046369344 0.08930115 0.013530449 0.07074909 -0.011650772 0.04190825 0.10499784 0.07992404
0.04705544 0.073719546 0.009753106 -0.09175614 -0.0884091 -0.10189155 -0.05362154 -0.07889853
0.038582366 0.049919788 0.08176899 0.017526167 -0.0063552894 -0.007104772 -0.0272391 0.017203894
-0.027867625 -0.03278052 -0.02833111 0.0064367494 0.014429341 -0.019549243 0.015850104 -0.002109528
-0.008650608 0.0010879842 0.03874214 0.04791461 -0.04352003 -0.057028644 -0.0030748441 -0.03165434
-0.03858083 -0.009784136 -0.029065397 0.013612671 -0.007271427 -0.020278577 0.010919941 0.014696485
0.04383262 0.038806953 -0.034337085 0.02732518 0.019591587 0.02224566 -0.00497279 0.018374966
0.041571207 0.07780612 -0.015716901 -0.005466934 -0.0065095923 0.012142806 0.05242679 0.06053563
-0.019754434 0.032862376 0.051461462 -0.022502884 0.0013957651 -0.022155926 0.010413888 0.014227362

features.2.bias f4 [36]
00000000: 24bf 51bd 0df4 f3bb be05 4bbd 59b8 9b3d
00000010: c58b c6bc b8e5 b8bc 80b2 1bbc de37 b8bc
00000020: 406a 95bc 0423 d7bd 6077 27bd 0c02 953c
00000030: 6cfd 8abc 90d7 43bd ba32 703c a45d 96bc
00000040: fae6 27bd de52 283d d7f8 87bd a4cf 2bbb
00000050: f271 2b3c 0496 673d 64ec 1b3d 2062 cb3c
00000060: b73e 05bc 4525 f23c 168b 603d cdfd 19bd
00000070: 94d4 19bd 4df9 703a 6eef 4cbd ee50 4ebd
00000080: a125 b1bd 9535 0fbc 4e78 4cbd 6eec 60bc
-0.051207677 -0.0074448646 -0.049566023 0.07603521 -0.02423657 -0.022570476 -0.009503007 -0.022487577
-0.01823914 -0.105047256 -0.04088533 0.018189453 -0.016966544 -0.047813 0.014660532 -0.018355198
-0.04099176 0.041094653 -0.06639259 -0.0026216293 0.010464178 0.05653955 0.038067237 0.024827063
-0.008132628 0.029558787 0.054820143 -0.03759556 -0.037556246 0.0009192422 -0.050033025 -0.05037015
-0.08649755 -0.008740802 -0.04991942 -0.013728244

features.4.weight f4 [48, 36, 5, 5]
00000000: 083a 493c 0eae 49bc dd30 133c fb82 093d
00000010: 2251 823d b328 3b3a d465 1b3d 0b76 523c
00000020: d51f f83c 750d 3e3d af20 b43b 0779 4c3d
00000030: 95fc 1fbc 74f5 d7bc c639 2bbc 7c25 e43c
00000040: 6151 ba3c b752 203b 7741 cbbc 6e4f e33b
00000050: 1edb b13b cc3c 363c 243e e83c 4d7d 7d3c
00000060: 777b 7ebc d25a c4bc 1b1c 453c 0ce3 0ebd
00000070: f120 c1bb b90e 263d a3f9 253d bb26 3abc
00000080: 7bae 763b 2fe2 8abd df34 89bd b97d 653b
00000090: 94bb debc 5f75 083d f5ef 10bd a444 743b
000000a0: f0bc 8dbd 998f 053d 0fa6 62bc ff7d 52bb
000000b0: 9642 d93c d6e8 33bd 40cf 27bb df56 a53c
000000c0: 61ec 1c3d e2ab c43b 2b79 f4bb b4f7 a639
000000d0: efed ca3c 234e 99bc d4b2 16bd 5242 6dbc
000000e0: d0e2 253d 76f0 803c a5e6 03bb 592b c63c
000000f0: 74f4 733b 0f44 f7bc 81cc e73c 0068 29bc
00000100: 2636 363d 7e9d 1abd afb5 d93c cb89 963c
00000110: 1ba2 60bc 734c 8b3c ceb4 2bbc 04bf c0bc
00000120: 6984 acbb 2258 143c a9b7 d73c a1de 8abc
00000130: 6b48 c53c 5570 003d 0cef 2939 1e69 40bc
00000140: a77f 95bd 7207 b5bc 1cce c6bc 3c3c ccbc
00000150: c15a 60bc 916b 90bc 70ce 863b 6a3c e6bc
00000160: 1dbb 513c f1f3 2cbd 5f92 563c d3d9 72bc
00000170: 0576 e4bc 3eee 3abd c7f6 16bd 6bb5 7ebb
00000180: c6a6 9e3b fd35 1ebd 45f5 7bba 69c0 f3bc
00000190: d7b2 61bd afac c43c bd0b 973c 9c9d 753c
000001a0: ad00 b63c 669f 37bd dddb 063d 2024 083a
000001b0: 8e04 4c3d 2d60 f23c 39a4 57bd 354a 563b
000001c0: 0b7d ac3a b23d b23c a0c4 e5bb 3f1d e33c
000001d0: b3c2 92bb 5ccc 19bc 7309 e6bc 0253 b7bc
000001e0: dd1d 8f3c 220e ecbc 8100 3ebd 86d0 f7bc
000001f0: ad1c 4bbd a7ed 04bd 9798 ddbb 7b1c 353c
00000200: 9d63 133c 4c4f 633d 9c05 803d 44f8 0dbc
00000210: 66ff 7ebb 884c b3bc 7c38 80bb 8db0 7f3d
00000220: bf3f 21bc 324d 94ba 55e1 45bd da82 41bd
00000230: e027 6cbc aa49 a63a cc78 133d 9362 363c
00000240: 59dd cdbc 37f6 1b3d ddee 35bc baac 9e3c
00000250: 2922 d9bb de5d 47bd 3e7b adbc 25d6 d43c
00000260: 5199 e2bb 2877 683d 22f2 653d f9d7 52bd
00000270: 967f 393d 4ae9 a3bc 0569 e43c d238 283d
00000280: cd74 103d c960 223c 8e78 423c 04b3 213c
00000290: 7ec5 dbbc 55bd 313d 0a72 513c 81a6 913c
000002a0: d0c3 95bc beeb 09bc 42f9 f33c f883 613d
000002b0: 6dce 973c 606a c43c 045f 90bd a42c 723c
000002c0: 304c 69bb 5459 bb3c 6583 fa3c 371a 0abd
000002d0: f70c fe3c f968 ae3b eb3d aebb 7442 30bc
000002e0: a198 92bc 9e7a eebc 4e16 fdbc 0486 c93c
000002f0: d614 dd3c a721 ac3c 37f6 a5bc b046 a0bb
00000300: bc96 30bc 7c58 91bc 218d 17bd bd14 cb3c
00000310: 6264 05bd b9db 03bd bc74 d3bc d42c 033d
00000320: 199b 1e3c 6f14 b1bb 93f1 a23a 236f ab3c
00000330: d25b c0bc ad29 0c3d f6a9 cd3c 8f46 233d
00000340: c82c 3c3d aae4 4fbc f567 2cbc 55ec 763b
00000350: b54a 4c3c 1708 f83a 2f09 debb e2e6 63bd
00000360: 46ee 55bd e26e 35bc d6c8 f13b 2ab8 f03b
00000370: b6b7 dabb 2244 fdbc 5cfc cdbc 87e2 26bc
00000380: fab0 e93c 9260 083c b0d8 ecbb b148 723b
00000390: e85d d53c 9a59 4a3d c6bc 563d b36f bdbc
000003a0: 84c5 123d e7ac 7fbc 142c fbbc 2f40 df3c
000003b0: e3fe 3cbc 076a ea3c ff57 e53c 33fa bdbc
000003c0: 37f9 66bd f62f 0a3c 6a7b 413d 22da 0b3c
000003d0: fd9b f03c 7db0 993c 1002 80bc 8901 83bb
000003e0: 9a2e 4a3c 43a8 1c3d f284 263d 2156 303d
000003f0: 6783 fe3c de68 173c a0a9 c0bc 08bb c53c
0.012281902 -0.012309564 0.008983818 0.03357218 0.06363131 0.00071395485 0.037938908 0.012845526
0.030288616 0.046399552 0.0054970603 0.04992011 -0.00976481 -0.026362158 -0.010450786 0.027849905
0.022743883 0.0024463364 -0.02481149 0.006936959 0.005427732 0.011122894 0.028349943 0.015471769
-0.015532366 -0.023969088 0.012030627 -0.034884498 -0.0058938195 0.040541384 0.040521275 -0.011361773
0.003764062 -0.06781422 -0.066995375 0.0035017563 -0.027189054 0.03331506 -0.03538509 0.0037272358
-0.069208026 0.03260765 -0.013833537 -0.0032118557 0.026521008 -0.04392322 -0.0025605708 0.020183025
0.038311366 0.0060019353 -0.0074607334 0.0003184654 0.024771659 -0.018714016 -0.036791638 -0.014481144
0.04049951 0.01573966 -0.0020126489 0.024190592 0.0037224563 -0.03018382 0.028295757 -0.010339737
0.044485234 -0.037747853 0.026575891 0.018376252 -0.013710524 0.017004227 -0.010480119 -0.023528583
-0.005264808 0.009054216 0.026332693 -0.01695186 0.024082383 0.03135713 0.00016206148 -0.011743812
-0.072997384 -0.022098277 -0.024268202 -0.024931066 -0.013693512 -0.017629417 0.0041139647 -0.02810498
0.012800959 -0.04222483 0.013096421 -0.014822441 -0.027888307 -0.04563736 -0.03685644 -0.0038865458
0.0048416583 -0.038625706 -0.0009611438 -0.029754834 -0.055102196 0.024008123 0.018438214 0.01499119
0.02221712 -0.04482975 0.03292452 0.00051933713 0.04980903 0.029586876 -0.05264685 0.003269804
0.0013159824 0.021757934 -0.007011965 0.027723907 -0.0044787764 -0.009387102 -0.028080678 -0.022378448
0.017470295 -0.028815333 -0.0463872 -0.030250799 -0.049587894 -0.032453205 -0.006762575 0.011054154
0.008995918 0.055495545 0.0625107 -0.008665148 -0.0038909554 -0.021887079 -0.0039129835 0.06242423
-0.009841858 -0.001131451 -0.048310596 -0.04724393 -0.014413804 0.0012686749 0.036003873 0.0111319
-0.02512996 0.038076606 -0.011104313 0.019369472 -0.0066263867 -0.048673503 -0.02117693 0.025981018
-0.0069152494 0.05675426 0.05613912 -0.0514755 0.04528769 -0.020008702 0.027882108 0.041069813
0.03526764 0.009910771 0.011869563 0.009869341 -0.02682757 0.04339345 0.012783537 0.01777959
-0.018281847 -0.008418022 0.029781941 0.055057496 0.018531049 0.023976505 -0.07049373 0.014781151
-0.003559839 0.022869743 0.030580232 -0.033716407 0.031012041 0.0053225723 -0.00531744 -0.010758031
-0.017895045 -0.029111203 -0.030894425 0.024600036 0.026987474 0.02101214 -0.020259006 -0.004891239
-0.010778125 -0.017742388 -0.036999825 0.024790162 -0.032566436 -0.032191966 -0.0258125 0.032025173
0.009680533 -0.005404047 0.0012431614 0.020927018 -0.023481283 0.034219433 0.025105458 0.03986221
0.045941144 -0.012688795 -0.010522832 0.0037677486 0.012468983 0.0018923309 -0.006775997 -0.05564011
-0.05222919 -0.0110738 0.007378678 0.007346173 -0.006674732 -0.030916277 -0.025144748 -0.010185844
0.028526772 0.008323805 -0.0072279796 0.0036969597 0.026045755 0.049401857 0.052426122 -0.023124551
0.035832897 -0.015605188 -0.030660667 0.027252285 -0.011535379 0.02861501 0.027996061 -0.023190593
-0.056390014 0.008434286 0.047236837 0.008535894 0.029371256 0.018760914 -0.015625983 -0.0039979857
0.012340212 0.038246404 0.04065413 0.04305089 0.031068517 0.009241311 -0.023518384 0.024137035

features.4.bias f4 [48]
00000000: e0f9 f9bc 3b20 a0bc 743c cc3c 4507 37bd
00000010: f81b 1fbb 7755 e4bc 67bd 80bc da5d cb3c
00000020: a43b 4ebc e8ee 4bbd 48e5 a6bc 0967 a43c
00000030: c8d4 a5bc 4989 aebb 8f74 43bc c45d cb3c
00000040: 4bea 07bd 723d 9dbc ce70 c3bc 55a1 f1bb
00000050: 10dd 9ebb 2747 3fbd 3d51 463c 7feb bd3c
00000060: e6d1 de3a e35a 2abc e41f 9dbc d050 13bd
00000070: c634 43bd 99a6 2f3d e8af 4cbd 5241 a4bb
00000080: f91c 0d3c 3571 5ebd 658c 7cbd 9cb0 65bd
00000090: 99c0 563c 2336 22bb ce16 8f3b ca95 30bc
000000a0: 092d 62bc 1254 8e3c d385 c7bb 33fe e2bc
000000b0: d686 2fbd 1a2b 3dbb 9122 22bd 23df 34bd
-0.030514657 -0.019546619 0.02493117 -0.044684667 -0.0024278145 -0.027872784 -0.015715314 0.024825025
-0.012587462 -0.049788386 -0.020373002 0.020068662 -0.020243064 -0.0053264243 -0.011929645 0.024824984
-0.033182424 -0.019194338 -0.0238575 -0.0073739686 -0.00484813 -0.046698716 0.01210433 0.023183582
0.001699981 -0.010397646 -0.019180246 -0.03596574 -0.04765775 0.04288349 -0.049972445 -0.0050126696
0.008612865 -0.05430718 -0.06165733 -0.05607663 0.013107442 -0.0024751506 0.004366732 -0.0107779
-0.0138046825 0.017374072 -0.006088951 -0.027709102 -0.0428532 -0.0028864802 -0.039583746 -0.044158112

features.6.weight f4 [64, 48, 3, 3]
00000000: 06cd 493b 3755 ee3c 656d 253d 3b21 f53c
00000010: 6224 93bc be98 1f3d ef97 453d 7862 633d
00000020: e123 b03b 30a6 e2bb 011a 9fbc 5500 aebb
00000030: 9e36 603b 6ce4 7e3c 8ebd 31bc e55e 4bbc
00000040: 17d4 333d 6c3c 543c 4a7b d13c 5977 91bd
00000050: 68cd 6cbd 3bc5 09bd 5133 ccbd 0d27 31bd
00000060: de46 283b e672 333d 73ab 62bc 55c4 e03c
00000070: 05ea 253c 8b3f a03c 616d ad3c 85c4 8fbc
00000080: c72e 8f3a 3b5f d1bb 4c4d 6f3d 14db c23c
00000090: 738c 42bd 24bb 41bd 68b5 883c f104 9e3c
000000a0: 5f8a cdba 6b63 9b3d c8c6 123c e616 523d
000000b0: 1e94 06bd 3cd2 cc3b c7db 4bbd 6116 173c
000000c0: 35dd ed3a 8c81 3e3d f87d 67bd 3509 af3c
000000d0: f791 3abc db27 273d 055b 183d ff8e 573d
000000e0: 773a e5bb 2365 513d ade2 a7bd af9b 7cbd
000000f0: c0ee 4abd 1732 143d 6617 d7bd db1e a03d
00000100: 8d99 713b 0667 1ebd 7ac7 fbbc e32a c83c
00000110: e5d7 953c 437f 50bd 4e25 6d3c 88cf 42bd
00000120: 0830 ec3c 1664 0d3c fbd8 843d 53de e23c
00000130: 1f3b 503d 4559 1b3d b022 553d 6bf4 2cbd
00000140: b2ee 173b 5e5d 853c 4d3e 9b3c 07bc c33c
00000150: 8b7b fabc ea07 f83c 2c0a da3c 7d10 6abd
00000160: 305e 85bd 581a 1ebd 5232 743d 615d 1e3d
00000170: 1dae 4ebc c841 443b 3c44 abbc 9658 7abc
00000180: 89ec e0bc 6c71 433c b314 273d a46e c93b
00000190: 82ef d4bc 0b9d 873c bf2a 34bd edf8 9a3c
000001a0: 4fcd e13c aef2 803c e526 923c fe02 913d
000001b0: 6fbb 0e3c 11ce cabc 0e45 a7bc 5038 0a3d
000001c0: 9b5f 413d 88b5 feba 8473 63bc 20fe 6bbc
000001d0: 562d 12bd 6556 55bd 5097 8fbd 32eb ef3c
000001e0: 034c dbbc f4ed f03a 87f6 f9ba 3eb8 df3b
000001f0: b6bd 4ebd 9cf1 4fbd 4a59 08bd a1de eabb
00000200: cebb 36bd 60e1 90bd 1e3f 5b3c d393 283d
00000210: e19f 9cbd bedc d93c f222 b93c 8b51 893d
00000220: 6d46 0a3d 6590 113c 3d84 cbbc d24b 9b3c
00000230: e14c 7ebd bfa6 b13c 2e6e a3bb 9c2f 22b9
00000240: 7e66 f43c 3dfb 7fbc e142 1cbd 72e5 9cbd
00000250: 3761 33bd fc95 b03b 33da 263d 3daf 113d
00000260: 056f 0c3d cb50 0abd 5786 cabc 371c 3b3b
00000270: 55e2 4b3d b79d 4c3c 199b eabc 4be0 0c3d
00000280: 0d4d 4abb f1be 673c c0af 0e3c 4808 06bd
00000290: fd96 7bbc 66a2 093d 5d4d 63bd ef71 b23c
000002a0: 7ba1 1fbd a71e 63bd 85b6 9fbc 8e91 d1bc
000002b0: 7b05 5dbc 0e7e d5bb d3a0 8bbd 38c5 49bd
000002c0: c6e9 43bd 30fb 0c3b b049 843d cabc 263d
000002d0: 2538 9f3a 5753 423c bf4a d8bc f181 aabc
000002e0: e08d db3c 8bfd 1fbd a290 503d 3b7e 763d
000002f0: 54d6 be3c 97a0 bb3c 18d2 2c3d 7a39 93bc
00000300: c4bb 71bc 7db3 df3c 3e8f b8bc f7c1 033d
00000310: a1a6 ab3c a10a 12bb 0ab7 ef3c 1054 dd3c
00000320: 77a7 4dbb ad68 423d 0b40 54bc f75b 893c
00000330: 4b04 0abc 61d9 ce37 1a6a 4fbd 6534 803d
00000340: 4e66 13bb c7d3 06bc 5f72 953c bd1b 163d
00000350: 9ba7 1a3d 18c8 9abc 1958 fbbc 122b 0fbb
00000360: 0ca1 05bd 1517 f3bb dacd 38bc 7c39 c63c
00000370: f45b 603d 3c15 b43c 7642 663d 4557 acbc
00000380: 917f 9dbc dd77 68bc c384 d8bc 3707 933d
00000390: d6a0 6b3d 9208 dc3c 219b 933c 1fc9 553d
000003a0: cb35 953c 3a1e 90bd 511d 96bb 2c4a f73b
000003b0: 7130 ffbc 20c8 303d 810a c03c 141b 58bd
000003c0: 5662 da3c 1981 113d d78c f4bc 18cf 69bd
000003d0: a26f 283d 88d1 343d 8195 773c 0778 03bd
000003e0: 0e10 18bd aa62 ac3d b8bf c4bb e0fa 5abd
000003f0: b8d7 233d 8af3 aebc a10e 943b 6424 7cbd
0.003079237 0.029093368 0.04038753 0.029923072 -0.017961685 0.038964026 0.0482406 0.05551383
0.005375371 -0.0069167838 -0.01942158 -0.005310098 0.0034212242 0.01555739 -0.010848416 -0.012412761
0.043903437 0.012953859 0.025571484 -0.07102842 -0.05781308 -0.03363536 -0.09970725 -0.043250132
0.0025677006 0.043810748 -0.013834822 0.027437368 0.010126595 0.01956155 0.02117032 -0.017549763
0.0010923975 -0.006389526 0.058423325 0.023786105 -0.047497224 -0.04729761 0.016688064 0.019289466
-0.0015681497 0.07587322 0.008958526 0.05129137 -0.0328561 0.006250648 -0.049770143 0.009221644
0.001814759 0.046510264 -0.056516618 0.021366695 -0.01138734 0.040809494 0.037196178 0.052626606
-0.006995495 0.051121842 -0.08197532 -0.06167191 -0.049544096 0.036180582 -0.1050251 0.07818385
0.0036865205 -0.03867247 -0.030734766 0.024434512 0.018291423 -0.050902616 0.014474226 -0.0475612
0.028831497 0.008629819 0.06486698 0.027693903 0.050837632 0.03792693 0.052035034 -0.042225283
0.0023183045 0.016279873 0.018950606 0.02389337 -0.030576488 0.030277211 0.026616178 -0.05714463
-0.065121055 -0.038599342 0.0596183 0.03866327 -0.012614754 0.0029946435 -0.02090656 -0.01527991
-0.027456539 0.011928897 0.040791225 0.0061472226 -0.025993112 0.016554376 -0.04398608 0.018917525
0.02756372 0.015740719 0.017840812 0.07080649 0.00871168 -0.024756463 -0.02041867 0.03374511
0.047210317 -0.0019432763 -0.013882522 -0.01440385 -0.035687767 -0.052084345 -0.070112824 0.029286955
-0.026769644 0.0018381462 -0.0019070663 0.0068273833 -0.05047389 -0.050767526 -0.033288278 -0.0071676527
-0.0446127 -0.07074237 0.0133817475 0.0411566 -0.07647682 0.026594516 0.022599671 0.06705006
0.03375857 0.008884524 -0.02484333 0.018957052 -0.062085036 0.021685956 -0.0049874997 -0.0001546726
0.029834028 -0.015623865 -0.03814972 -0.07660951 -0.043793883 0.0053889733 0.040735435 0.03556751
0.034285564 -0.033768456 -0.024722261 0.0028550753 0.049776394 0.012488774 -0.02863841 0.03439359
-0.003086868 0.014144645 0.008708894 -0.03272274 -0.015355823 0.03360214 -0.0554937 0.021782843
-0.03897236 -0.055449154 -0.019496212 -0.025582101 -0.013490076 -0.006515271 -0.06817784 -0.049260348
-0.047830366 0.0021512024 0.06459367 0.040707387 0.001214747 0.01186069 -0.02640283 -0.020813914
0.02680105 -0.039060157 0.050919183 0.060178977 0.023295559 0.022903724 0.04219255 -0.017971743
-0.0147542395 0.027307266 -0.02252924 0.0321674 0.020953478 -0.0022284167 0.029262085 0.027017623
-0.0031380334 0.047463108 -0.012954722 0.016767485 -0.008423875 2.4658339e-05 -0.050638296 0.062599935
-0.0022491398 -0.008229203 0.018243013 0.036647547 0.037757497 -0.01889424 -0.030681657 -0.002184574
-0.03262429 -0.007418523 -0.011279548 0.024197333 0.054775193 0.021982782 0.056215726 -0.021037707
-0.019225867 -0.014188734 -0.026430493 0.071791105 0.057526432 0.026859555 0.018018307 0.052193757
0.018214127 -0.07037015 -0.0045811315 0.007546684 -0.031151028 0.043159604 0.023442509 -0.0527602
0.026658218 0.035523508 -0.029852314 -0.057082266 0.041122086 0.044145137 0.015111328 -0.03209689
-0.037124686 0.08417256 -0.0060043 -0.05346191 0.040000647 -0.021356363 0.0045183455 -0.061558142

features.6.bias f4 [64]
00000000: 98ce 4b3c 9715 0bbd d801 bdbc b97c 69bd
00000010: 6893 ce3c a88b 38bd 9790 103d dedb c73b
00000020: 816d 953c cab7 0d3d 5789 84bc b4fe 0dbd
00000030: ea06 073c bab9 e8bc 40b3 b4bb 067f 153d
00000040: 7132 55bd 3d21 29bd 7088 f63c 2d72 f1bc
00000050: b803 3f3d f723 573d 09ad 043c 1500 1f3d
00000060: a064 363d e368 37bd 160b 8c3c 33b1 9d3c
00000070: 87a1 143a 15c8 f63c a7fe 35bd 1696 80bd
00000080: 26f3 02bc 5138 38bd 3750 04bd 3537 073d
00000090: aaa1 de3c 0fec 4d3c 3bcb 0c3d 73e1 ca3c
000000a0: 1790 df3c d196 42bc 1f40 313d a24a adbc
000000b0: f5ce a03b 7ed0 5a3c e44e 4bbc 581e bfbc
000000c0: 8f51 d9bc 52c1 f63b a6bf 4dbd c20b 0fbd
000000d0: ae80 483d cb67 0bba 5aa1 223c a591 a13c
000000e0: c661 30bd 5b65 0e3d c440 193d 38f0 0f3d
000000f0: 1fc1 4e3c 3a71 7f3c 3657 1e3d 875e e93c
0.0124393925 -0.033956137 -0.023072168 -0.05700371 0.025216773 -0.04505506 0.03529414 0.0060992083
0.018240692 0.034599103 -0.01617877 -0.034666732 0.008241395 -0.028408874 -0.0055145323 0.036498092
-0.052050058 -0.041291464 0.030094355 -0.029473389 0.046634406 0.052524533 0.008097895 0.038818438
0.044529557 -0.044777762 0.01709513 0.019249534 0.00056698214 0.030124703 -0.04443231 -0.062786266
-0.007992541 -0.044975583 -0.03230306 0.033011634 0.027176697 0.012568488 0.034373503 0.024765706
0.027290387 -0.011876778 0.04327404 -0.021153752 0.0049074837 0.0133553725 -0.012408946 -0.023329899
-0.026528148 0.00753037 -0.0502316 -0.034923322 0.048950844 -0.00053178956 0.0099261645 0.019722769
-0.043061994 0.03476463 0.03741528 0.0351412 0.012619286 0.01559096 0.03865739 0.028487457

features.8.weight f4 [64, 64, 3, 3]
00000000: 87fd cb3c 8465 f2bc 2e00 58bd 122d d43c
00000010: 42c4 453d 812d df3b d368 6abd 2c67 a9bc
00000020: 414d 3dbd ef7d 063d f795 91bc a1fc 683d
00000030: 4b42 1a3d d69d a2bc cfd8 eebc 02cb 9d3c
00000040: 9c98 353d 7cc8 383d fbd4 ce3c 184d 113d
00000050: bde5 843d 42d5 1d3b 71b2 8839 b9d5 bc3c
00000060: 0990 e63c 8579 163d 8bc3 393c 2ee7 063c
00000070: cf00 1abc 8561 7e3c 8f32 2dbc 082f 57bc
00000080: f82c 903c 02d6 a43d 82f2 7e3c 9747 3c3d
00000090: 20c3 c03b 93e5 bb3c 6e8c bebc 85ff 813c
000000a0: 77ab ba3b 132b 18bd 922c 77bc d507 973a
000000b0: 55f5 033d 9aef 773d ed75 273d 2704 0c3d
000000c0: 3ae8 c93b c9c3 773c 55b7 263d 0cf8 dd3c
000000d0: 17db 8d3c ebc0 f83c a640 1abc 0fa7 0a3b
000000e0: ecf7 9d3b f2e7 52bd 10b4 823c 96b3 f23c
000000f0: dad2 abbb 2a57 86bd ea91 26bd c3c3 b93a
00000100: b43d fdbb 21de babc 9940 9dbc 2c82 98bd
00000110: 73fc ddbc d988 c0bc 97c0 5e3c 661b 6e3c
00000120: 4021 393c c828 253b 8aa4 113d 724b 40bb
00000130: b0e0 bc3c 5165 413c 0c6f 263d 4ed4 e23c
00000140: cafe 8fbc 6fca cebc fc6e 5bbd e9f3 2c3c
00000150: c627 023c 1310 3fbd d0d7 253d 96bc a23c
00000160: df0f 233d 931a 22bc 2797 a9bc 566a d13c
00000170: e17a c53b 0b10 fbbc 2f2e 733d a1c8 2a3d
00000180: 164d 443b 2a43 b2bb 3955 8a3c b429 7a3d
00000190: 33f6 823d 3ded 383d 4c8b ad3b 6cb2 1d3d
000001a0: 2179 5d3d d8c4 f23a 7641 4d3c 2335 683d
000001b0: 83a0 90bc 0a0f d7bb 58ef b73c 0e99 0bbd
000001c0: 7598 dbbc 5006 42bc 5829 eb3c 7c54 1bbd
000001d0: c87a 1abd b77d e33c 7ba3 633c a829 763d
000001e0: 8489 11bd bd3a b73b 6f17 fd3b 98d9 d93d
000001f0: 7096 69bb 0fc2 52bb 959b 5f3c 1b18 55bc
00000200: 7826 6fbd 5dd6 dcbc b1b4 dfbb dda9 15bd
00000210: 3c58 00bd e523 863c 934b 1ebd a2e8 03bd
00000220: 1b79 ac3c 699b 1bbd 669f 25bd 6cd0 543c
00000230: 150b 043b c1f2 48bc a4ac abbc 7786 35bd
00000240: 7841 b5bb 65a2 bd3b 5657 9c3c 056a 1d3d
00000250: b64e 373c 61d5 fa3c 7804 903d 5710 173c
00000260: e462 c93c dbc6 38bd 8698 3e3d 7ecb 6bbb
00000270: b384 3cbd 3e11 533d d696 eebc c11a 03bd
00000280: eb16 d23c 3637 f73a 572e 82bd 9143 3c3c
00000290: 39bd 993c e34d 3ebd 2873 59bc 10c4 b43c
000002a0: d849 83bb fd97 8b3c 15a8 1d3d 0a3b 753c
000002b0: a677 0b3d d720 d0bb 9b07 373c 94f1 d3bc
000002c0: 2cc6 15bc e0e7 2a3d 5ee4 8db9 6592 da3b
000002d0: df51 b2bc 51e8 fb3c aa83 8b3b e6d7 debc
000002e0: 2198 71bd 16b9 46bd e03c 8bbb bbef 073c
000002f0: f63e 383c 98c5 1cbd f5e3 a53c a24d 073d
00000300: 4c1a c8bc 2871 28bd f7ca 173d ecce b83c
00000310: cd73 b7ba c69c 59bd f2d2 9c3c 0356 24bd
00000320: 0d8f 7bbd 8d80 98bb 405d 183b 060b d7bb
00000330: 97c2 a6bc 2581 1c3c eb79 82bd 3842 8dbd
00000340: 82fb 90bc a02c 1bbd 0e18 73bd 52c7 4ebc
00000350: 0103 503c a47a 9abb d6de ddbc 369f 64bd
00000360: 6b98 9dbd 78dd 4ebd b70c 883c 90d0 983c
00000370: fcb2 8b3c b186 9f3c ffde 76bc 04b6 1abb
00000380: 97a7 8e3c 7215 123d 2cb1 e93a 445f 3ebd
00000390: 4575 963c 809d b73c 38ab 9f3b 1742 01bd
000003a0: cf93 c2bb af89 11bc 2025 483b 2301 0abd
000003b0: 01e2 1b3a a39c 2f3c a96b 043c 2cc0 9abc
000003c0: 10c5 963d 2565 333c 5d51 533d 1b80 ccbd
000003d0: 3db8 55bc 4c99 383d 5258 3fbd 5bc8 87bc
000003e0: 32a7 88bc 81b3 31bc 4612 1dbd ef1b 81bd
000003f0: aecf ffbc 914f cdbb 7fe8 773c 6eee 33bd
0.024901165 -0.029589422 -0.052734546 0.025900397 0.04828287 0.0068108444 -0.057228874 -0.020679079
-0.046216253 0.032834943 -0.017771704 0.05688155 0.03766088 -0.019850653 -0.029156117 0.01926184
0.044334993 0.04511307 0.025248041 0.035473913 0.064891316 0.002408341 0.0002607289 0.02305113
0.028144853 0.036736984 0.011338125 0.0082338285 -0.009399607 0.01552618 -0.010571136 -0.013133772
0.017599568 0.08048631 0.015560748 0.04596671 0.0058826357 0.022936618 -0.023260321 0.015868912
0.0056967097 -0.037150454 -0.01508631 0.001152272 0.03221639 0.060531236 0.040883947 0.034183647
0.0061617168 0.015122362 0.040702183 0.027095817 0.017316384 0.030365428 -0.009414827 0.0021156704
0.0048208144 -0.05149073 0.015955001 0.029626649 -0.0052436413 -0.06559594 -0.0406665 0.0014172721
-0.007728303 -0.022810997 -0.019195842 -0.07446703 -0.027097916 -0.023502754 0.013595722 0.0145328995
0.011299431 0.002520131 0.035557307 -0.0029341844 0.023056358 0.011803941 0.040633246 0.027689125
-0.017577548 -0.025243012 -0.05357264 0.0105562 0.007944053 -0.04664619 0.040489018 0.019865315
0.039810058 -0.009894031 -0.020701958 0.0255634 0.006026611 -0.030647298 0.059370216 0.04169524
0.0029953173 -0.0054401355 0.01688634 0.061074927 0.06394615 0.045148123 0.0052961465 0.038500234
0.054070596 0.0018521799 0.012527814 0.0566913 -0.017654663 -0.006563072 0.022452995 -0.03408151
-0.026806096 -0.011842325 0.028706238 -0.037922367 -0.03771475 0.027769906 0.013893957 0.06009832
-0.035531536 0.005591719 0.007723741 0.10637206 -0.0035642646 -0.0032159125 0.0136479335 -0.0130062355
-0.058386296 -0.026957685 -0.00682696 -0.036538947 -0.031334147 0.016374538 -0.038646292 -0.032204278
0.021053841 -0.037990008 -0.040435217 0.012989145 0.0020148207 -0.012264908 -0.020956345 -0.04431769
-0.005531486 0.005787181 0.019084614 0.038431186 0.0111882 0.030619325 0.07032102 0.009220204
0.024583288 -0.04511152 0.046532176 -0.0035979445 -0.04602499 0.051530115 -0.029124659 -0.032007936
0.025645694 0.0018861059 -0.06356495 0.011490718 0.018766986 -0.046460997 -0.013272084 0.022066146
-0.0040066056 0.017040247 0.038490374 0.014967689 0.034049653 -0.006351571 0.011171247 -0.02587203
-0.009141486 0.04172504 -0.00027063763 0.0066702836 -0.021767555 0.030750426 0.004257639 -0.027202558
-0.058982972 -0.048516355 -0.0042492 0.008296902 0.01124548 -0.038274378 0.0202503 0.03303302
-0.024426602 -0.04112354 0.037058797 0.022559606 -0.0013996303 -0.053128026 0.019143555 -0.04012109
-0.06141572 -0.0046539963 0.002324894 -0.0065625934 -0.02035646 0.009552275 -0.0637091 -0.06897396
-0.017698053 -0.037884355 -0.059349112 -0.012620764 0.012696029 -0.004714327 -0.027083796 -0.055815898
-0.07695087 -0.050504178 0.016607625 0.018654138 0.01705312 0.019473406 -0.015067815 -0.0023607025
0.017413897 0.035664983 0.0017829291 -0.04647757 0.018366465 0.022413969 0.004872706 -0.03155717
-0.0059380303 -0.008882924 0.0030539706 -0.03369249 0.0005946458 0.010718497 0.008082309 -0.018890463
0.073618054 0.010949408 0.051591266 -0.09985372 -0.013044414 0.04506807 -0.04671509 -0.01657503
-0.016681287 -0.01084602 -0.038347505 -0.06304156 -0.03122696 -0.0062655886 0.015131115 -0.043928556

features.8.bias f4 [64]
00000000: fb51 69bc 15d1 ecbc 44d2 fd3c c3d9 343d
00000010: 50be e33c dbf6 203d c8c4 0fbd 83b5 a93c
00000020: bad7 00bd ef5f 18bd 921a 47bd abb4 3abc
00000030: 1176 033d e8dc 57bd d25a dd3c 97fa c23c
00000040: 258c d63c 164d c53b 971c 21bd 26c8 bebc
00000050: 8b20 3a3c ad73 efbc 404c 553c b081 79bd
00000060: 0c12 0c3d 7025 e63c 311b b43c 432f 3f3c
00000070: 805f 7f3c 789b 263c 4572 2b3c 187d fb3b
00000080: 3efc b3bb 458d 26bd e7b4 06bd 25ff d0bc
00000090: 93cb 2abc 3839 d03c 2004 483d 64e2 953c
000000a0: 02a4 31bd de80 05bd 5e35 373d c9ae bc3b
000000b0: e197 2fbd 9a04 5d3c 9009 293c 90a3 94bb
000000c0: 6bad ba3c b823 98bc 45d5 ff3c 8c08 f53c
000000d0: 1bcc c1bc f1a3 31bb 4c60 b7bc d814 263d
000000e0: 176f babc 7a84 9ebc 2095 143d 3166 393d
000000f0: e68c 273d 71df 283d 420e 3c3d 2dc7 463d
-0.014240737 -0.028908292 0.030984052 0.044152986 0.027800709 0.03929792 -0.035099775 0.020716434
-0.031455733 -0.037200864 -0.048609324 -0.011395614 0.03209502 -0.052700907 0.027020846 0.023801131
0.026189873 0.0060211523 -0.039333906 -0.023288798 0.011360298 -0.029229963 0.013018668 -0.060914695
0.0341969 0.028094023 0.021985622 0.011668983 0.015586734 0.010168903 0.010464256 0.0076748244
-0.005492716 -0.04066207 -0.032887366 -0.025512287 -0.010424512 0.025417909 0.04883206 0.018296428
-0.0433693 -0.0325936 0.04472863 0.0057581407 -0.042869452 0.013489867 0.010317221 -0.0045360997
0.02278777 -0.01857172 0.031229625 0.029911302 -0.023656895 -0.0027105773 -0.022384785 0.040547222
-0.02275805 -0.01935028 0.03627503 0.045263473 0.040905856 0.041228715 0.045912035 0.048529793

classifier.0.weight f4 [100, 256]
00000000: 608c 813b c9ff 2bbd 6545 373d a6eb 43bd
00000010: e2c2 07bd 1c5d cbbc 196d 5d3d 759a 5e3d
00000020: 867a 233d 78b5 acbc 9262 3a3d 729a 833d
00000030: de93 49ba 08e4 7e3d d18d 23bd e576 0ebd
00000040: 7453 9f3c d5b2 843d 47d8 79bd 54db 1dbd
00000050: c81d 36bd de14 263d eb6e ec3c e2c7 c4bc
00000060: ab72 cebc 8f6c 81bd 83dd cebb eea6 f5bc
00000070: 90b5 203c 3076 1dbd 8d36 8cbd 5b91 893c
00000080: 49d6 39bd ca90 34bb 4208 433d 1e45 1bbd
00000090: 22e6 753d f242 7ebd e7f1 8d3c 37e9 1abd
000000a0: f19f ba3c 22db a23c 47d3 59bd b7d6 7a3c
000000b0: 1c26 40bd 7c01 eebc 2edd ccbc 54d4 d6bc
000000c0: cd5b fb3c b060 71bd 051f 9ebc 178d 24bd
000000d0: c0a7 37bd 4fce 413c 022a 20bd 02e3 29bd
000000e0: 0b2b 2e3d 8aac b83c 0621 d4bb d8ea 863d
000000f0: a063 cfbb 288d 023d 5508 a0bd 76d8 07bd
00000100: abdd 1ebd 1bcd 2cba 0268 e23c 37b8 62bc
00000110: e7f6 113d e144 20bd 29e2 21bd 05bb 2ebd
00000120: a907 80bd 40d4 143d f5b1 1f3d 8bf1 9fbc
00000130: 4e60 613d e91c 62bc 93d4 183b 083c 1f3d
00000140: dd26 8b3d 64b6 07bd 0cb2 42bd 5a59 81bd
00000150: c628 333d 82f9 403d 9ec7 acbc 88e2 063d
00000160: dc86 84bd 7ac4 883c 47a8 633d f253 61bc
00000170: ac7a 17bd 1d9a 2ebd 3a74 dcbb 4849 50bd
00000180: bf53 38bd d416 8b3b 5feb e7bb c1da ec3b
00000190: 01dc edbb a06e a53b e9de 3f3c eed4 f83c
000001a0: c72b 03bd 3fdb 99bb 7bcc 4abd f000 113c
000001b0: 6885 e0bc 6431 843c 3283 0a3d 5762 c13b
000001c0: 63c9 83bc cd23 503c 26b0 c83c a2b9 27bd
000001d0: eb93 abbc 691f f43c 81f2 223d cfc2 373d
000001e0: dc47 323d 3d4a 2fbd 3c18 42bc 15ca 8fbc
000001f0: 0963 89bc dc36 5d3d ede2 813c 7bc7 4b3d
00000200: c97c 253d e370 553d e341 9abc c5a8 9fbd
00000210: 90e1 1e3d 5fa0 6fbd 1a6c 8dbb 5ceb 7c3d
00000220: a42e 183d abf8 f73c a6bd 5d3d cd5b 67bc
00000230: 1547 1b3d 4994 00bd 51a2 62bd e987 27bc
00000240: f6f1 ca3c b58d 71bd 53cc c13b 9707 33bd
00000250: a2b7 aa3b ae00 1d3d 2cf6 a53c 3873 783d
00000260: 7edf ca3c 7e0f 34bd ce4b 0e3d a940 94bc
00000270: 219b 0bbd f3a1 41bd 01df e63c 01ff aa3c
00000280: c0d8 583d 311c 77bd 8bdd e63a a592 203d
00000290: e6bc 7e3d 1647 c7bc 1fbf 023d 09c4 2a3d
000002a0: 61c1 303c ac6e 723b b2a1 2dbd e1b0 14bd
000002b0: 1d73 21bc 7e07 45bd 3be4 e73c afcd 37bd
000002c0: c561 53bd 3733 3abd 2092 6cbc b62a 42bd
000002d0: c2d1 6eba 0bb2 7e3d cdcf e1ba e7e4 bb3c
000002e0: 236d 793b 86b7 00bd b180 1ebd 0757 453c
000002f0: 79e2 00bd 8ed9 ef3c c79e 87bc 58cf e33c
00000300: 890b d7ba fe0e 813d e4fe 0f3d e1c7 49bc
00000310: 3a5d 403d 1eb8 debc 83e6 cabc 4867 48bd
00000320: 8dce ebbc bf1d 1cbd ec1c 433d 8e1c 4d3d
00000330: 063f 1bbd 804c 7dbd 5c6b 6c3c a400 e23c
00000340: 2b82 4339 301c 3abd 2398 723d a57d 07bd
00000350: 2c0a 22bd c876 14bd 0634 cd3b f7df 6fbd
00000360: cd0e 133d 6546 873c f3be f5bb 0576 1f3c
00000370: 7e12 853d 8b33 bc3c 84a8 6dbd 33fe 203d
00000380: 3064 d7bc 02c3 45bd 7ecc 7cbc 5a28 ea3c
00000390: 427e 07bc f570 21bd c133 653d e3cd fc3c
000003a0: e99a 933d 5601 993c 6962 6f3d 3048 823c
000003b0: da00 443d 76c9 28bd 0bd9 963c d86c 5fbc
000003c0: 1475 0b3d 75af 89bc c046 813c b184 f9bc
000003d0: 8fc3 5e3b 8f4a b63c 47ae 753d 6d09 433d
000003e0: 213c c33c 9d23 753d 445d ecb9 1c29 843d
000003f0: 0449 82bd 1e6c 983c a6f9 f03c a69e b83c
0.0039535016 -0.041991983 0.044743914 -0.047832154 -0.03314484 -0.024824671 0.05405912 0.05434652
0.03991177 -0.021082625 0.04550416 0.064259425 -0.00076895754 0.062229186 -0.03993017 -0.034781355
0.019448973 0.06479422 -0.060997274 -0.038539246 -0.044461995 0.040547244 0.028861484 -0.024021093
-0.025201162 -0.06319534 -0.0063130273 -0.029986825 0.009808913 -0.03844279 -0.06846342 0.016792944
-0.045370374 -0.0027552121 0.047615297 -0.037907712 0.060033925 -0.062075563 0.017327262 -0.037820067
0.022781344 0.019879881 -0.053180005 0.015309981 -0.046911344 -0.029053442 -0.02500781 -0.026224293
0.030683422 -0.0589301 -0.0193019 -0.040173616 -0.044837713 0.011828973 -0.03910256 -0.041476257
0.042521518 0.02254321 -0.0064736633 0.06587762 -0.006329015 0.0318729 -0.07814089 -0.033165418
-0.038785618 -0.00065918424 0.027637485 -0.013837866 0.035635855 -0.039128188 -0.039522324 -0.042658824
-0.06251461 0.03633523 0.038988072 -0.019524356 0.055023484 -0.013800838 0.0023320063 0.03887561
0.06794522 -0.033132926 -0.04753308 -0.063158706 0.043740056 0.04711295 -0.021091279 0.03293088
-0.06471035 0.01669525 0.055580404 -0.013752924 -0.036982223 -0.042627443 -0.0067277225 -0.050851136
-0.04500174 0.0042446647 -0.007077619 0.007228226 -0.0072588925 0.005048588 0.011710861 0.03037497
-0.03202417 -0.0046953256 -0.049511414 0.008850321 -0.027407363 0.016136833 0.033816524 0.0059016156
-0.01608724 0.012703848 0.024498057 -0.040948518 -0.020944556 0.029800134 0.03978205 0.04486352
0.04352556 -0.04279541 -0.011846598 -0.017552415 -0.016770856 0.054007396 0.015855277 0.049750786
0.040402208 0.05210961 -0.018830245 -0.07795862 0.038789332 -0.05850255 -0.004315865 0.061747894
0.037153855 0.030269941 0.05413594 -0.014121008 0.037909586 -0.031391416 -0.05533058 -0.010225275
0.02477358 -0.058973033 0.00591425 -0.04370841 0.005209879 0.038330726 0.020258985 0.060656756
0.024764773 -0.043960087 0.03474026 -0.018097239 -0.03408349 -0.047273587 0.028182508 0.020873548
0.052941084 -0.06032962 0.0017613632 0.03920235 0.062191866 -0.024325889 0.03192055 0.04169086
0.010788293 0.0036992235 -0.042390533 -0.036301497 -0.009854105 -0.04810285 0.028307071 -0.04487389
-0.051606912 -0.045459 -0.014439136 -0.047404014 -0.0009110236 0.062181514 -0.0017228067 0.022936298
0.0038059435 -0.03142502 -0.03869695 0.012044675 -0.03146598 0.029278543 -0.016555203 0.02780883
-0.0016406636 0.06301688 0.035155192 -0.012315721 0.046963908 -0.027187403 -0.02476812 -0.04892662
-0.028785015 -0.038114306 0.047635004 0.05007606 -0.0379019 -0.061840534 0.014429893 0.027588196
0.0001864514 -0.045437038 0.05922712 -0.03307881 -0.039560482 -0.03624609 0.006262305 -0.0585632
0.035902787 0.016513059 -0.0074995696 0.009732728 0.06497668 0.022973796 -0.058022037 0.039304923
-0.02629289 -0.048281677 -0.015429614 0.028583694 -0.008269848 -0.039414365 0.05595756 0.030859893
0.07207281 0.018677395 0.05844346 0.015903562 0.047852375 -0.041207753 0.018414041 -0.01363679
0.0340472 -0.016807297 0.015780807 -0.03045878 0.0033991074 0.02225235 0.059980657 0.04761641
0.023832383 0.059848417 -0.00045082916 0.064531535 -0.06361583 0.018606242 0.029415917 0.022536587

classifier.0.bias f4 [100]
00000000: 66a0 4f3d 42a3 b5bc cca5 0fbd 28b4 92bb
00000010: b8ec e1bc 7301 18bd 0c2f cc3c 2ad9 1abd
00000020: 2e9a de3b 655e 8fbd 4e8a 6d3a 5bca bebd
00000030: 4f71 bfbc 6149 c83c 0321 9e3d abda 813c
00000040: b6d8 0a3d 2319 703c d5ed 25bd e2a9 b1bd
00000050: 81b5 75bd 2a93 1a3d 8a31 dcbd ea5f ae3c
00000060: 3dd4 ac3d 53a5 24bd a797 183c ff2c 88bc
00000070: df99 933c 39cc d4bd 6c9d 523c 63dd 883d
00000080: 16a3 6bbc 2966 31bd 559d 003c af5d 2cbd
00000090: 04e1 dfbb ed70 a33c bfb6 c0bd a0d1 0e3c
000000a0: 78f3 5c3d 688d 43bd d6b3 66bd 827d ce3b
000000b0: 1788 ddbc 1262 4c3d dba7 513d 6214 bb3c
000000c0: 6cfc a03d f599 663d 1045 fabc 09da 83bd
000000d0: 951e 7fbd 694e 903c b143 a3bd bb56 913d
000000e0: 4e1e 44bd b288 b33c 8d6f 91bb bb6f 843d
000000f0: 0209 6bbd 8760 debc 8d59 253d 9260 523d
00000100: 9e34 693c a65c 0cbd 0959 eabc 23f9 4d3d
00000110: df68 a83d cf45 ecbc 019e af3a d725 6d3d
00000120: 2a36 643c d97e 8b3d 3de0 6fbc c93c 34bd
00000130: 482d 3ebd 9d90 523c 4170 603d f31b 77bd
00000140: 4e8a d73c 93fe 71bd 49b6 883d 6103 8b3c
00000150: 935d b13c e978 c3bc a479 d73a 5c04 1d3d
00000160: ea84 653d 9bec 02bc 4a42 89bd d29f 4bbd
00000170: ad0e 4a3d efcf a2bd 8359 873d 3929 72bc
00000180: 291c 7bbd 750f efbb c3e9 d43c c424 d83c
0.050690077 -0.022172574 -0.035070226 -0.0044770427 -0.027578697 -0.037110757 0.024924777 -0.03780476
0.006793282 -0.07000426 0.00090614415 -0.0931594 -0.02336946 0.024449052 0.0772114 0.01585134
0.033898078 0.014654431 -0.040510017 -0.08674981 -0.05998755 0.037738003 -0.10751636 0.02128597
0.08438919 -0.040196728 0.0093135005 -0.016623018 0.018017707 -0.10390515 0.012854915 0.06682851
-0.014382144 -0.04331032 0.007850011 -0.04208153 -0.006832244 0.019951308 -0.09409856 0.008716971
0.053943127 -0.047742277 -0.05632385 0.006301583 -0.027042432 0.049898215 0.05118547 0.022836868
0.07860646 0.05629917 -0.03055051 -0.06438071 -0.062285025 0.017615514 -0.079718955 0.07096621
-0.047880463 0.021915767 -0.0044383467 0.064666234 -0.057381637 -0.027145637 0.040368605 0.051361628
0.014233736 -0.034268044 -0.028606908 0.050286423 0.082231276 -0.028841881 0.0013398529 0.057897415
0.013928929 0.06811304 -0.014640865 -0.04400328 -0.046429902 0.012851861 0.054794554 -0.06032939
0.026311066 -0.05908067 0.06675393 0.016969385 0.021651065 -0.023861365 0.001643945 0.038334236
0.05603496 -0.007990981 -0.06702097 -0.049712963 0.049330402 -0.079498164 0.0660887 -0.014780336
-0.061306152 -0.007295544 0.025990373 0.026384719
